…
  type: <class 'bool'>
  value: null
diffusion:
  computed: <labml_nn.diffusion.ddpm.DenoiseDiffusion object at 0x000002AE719BE860>
  is_explicitly_specified: false
  is_hyperparam: null
  is_meta: null
  name: diffusion
  options: []
  order: 14
  type: <class 'labml_nn.diffusion.ddpm.DenoiseDiffusion'>
  value: <labml_nn.diffusion.ddpm.DenoiseDiffusion object at 0x000002AE719BE860>
epochs:
  computed: 100
  is_explicitly_specified: true
  is_hyperparam: null
  is_meta: null
  name: epochs
  options: []
  order: 11
  type: <class 'int'>
  value: 100
eps_model:
  computed: "UNet(\n  (image_proj): Conv2d(3, 64, kernel_size=(3, 3), stride=(1, 1),\
    \ padding=(1, 1))\n  (time_emb): TimeEmbedding(\n    (lin1): Linear(in_features=64,\
    \ out_features=256, bias=True)\n    (act): Swish()\n    (lin2): Linear(in_features=256,\
    \ out_features=256, bias=True)\n  )\n  (down): ModuleList(\n    (0): DownBlock(\n\
    \      (res): ResidualBlock(\n        (norm1): GroupNorm(32, 64, eps=1e-05, affine=True)\n\
    \        (act1): Swish()\n        (conv1): Conv2d(64, 64, kernel_size=(3, 3),\
    \ stride=(1, 1), padding=(1, 1))\n        (norm2): GroupNorm(32, 64, eps=1e-05,\
    \ affine=True)\n        (act2): Swish()\n        (conv2): Conv2d(64, 64, kernel_size=(3,\
    \ 3), stride=(1, 1), padding=(1, 1))\n        (shortcut): Identity()\n       \
    \ (time_emb): Linear(in_features=256, out_features=64, bias=True)\n      )\n \
    \     (attn): Identity()\n    )\n    (1): DownBlock(\n      (res): ResidualBlock(\n\
    \        (norm1): GroupNorm(32, 64, eps=1e-05, affine=True)\n        (act1): Swish()\n\
    \        (conv1): Conv2d(64, 64, kernel_size=(3, 3), stride=(1, 1), padding=(1,\
    \ 1))\n        (norm2): GroupNorm(32, 64, eps=1e-05, affine=True)\n        (act2):\
    \ Swish()\n        (conv2): Conv2d(64, 64, kernel_size=(3, 3), stride=(1, 1),\
    \ padding=(1, 1))\n        (shortcut): Identity()\n        (time_emb): Linear(in_features=256,\
    \ out_features=64, bias=True)\n      )\n      (attn): Identity()\n    )\n    (2):\
    \ Downsample(\n      (conv): Conv2d(64, 64, kernel_size=(3, 3), stride=(2, 2),\
    \ padding=(1, 1))\n    )\n    (3): DownBlock(\n      (res): ResidualBlock(\n \
    \       (norm1): GroupNorm(32, 64, eps=1e-05, affine=True)\n        (act1): Swish()\n\
    \        (conv1): Conv2d(64, 128, kernel_size=(3, 3), stride=(1, 1), padding=(1,\
    \ 1))\n        (norm2): GroupNorm(32, 128, eps=1e-05, affine=True)\n        (act2):\
    \ Swish()\n        (conv2): Conv2d(128, 128, kernel_size=(3, 3), stride=(1, 1),\
    \ padding=(1, 1))\n        (shortcut): Conv2d(64, 128, kernel_size=(1, 1), stride=(1,\
    \ 1))\n        (time_emb): Linear(in_features=256, out_features=128, bias=True)\n\
    \      )\n      (attn): Identity()\n    )\n    (4): DownBlock(\n      (res): ResidualBlock(\n\
    \        (norm1): GroupNorm(32, 128, eps=1e-05, affine=True)\n        (act1):\
    \ Swish()\n        (conv1): Conv2d(128, 128, kernel_size=(3, 3), stride=(1, 1),\
    \ padding=(1, 1))\n        (norm2): GroupNorm(32, 128, eps=1e-05, affine=True)\n\
    \        (act2): Swish()\n        (conv2): Conv2d(128, 128, kernel_size=(3, 3),\
    \ stride=(1, 1), padding=(1, 1))\n        (shortcut): Identity()\n        (time_emb):\
    \ Linear(in_features=256, out_features=128, bias=True)\n      )\n      (attn):\
    \ Identity()\n    )\n    (5): Downsample(\n      (conv): Conv2d(128, 128, kernel_size=(3,\
    \ 3), stride=(2, 2), padding=(1, 1))\n    )\n    (6): DownBlock(\n      (res):\
    \ ResidualBlock(\n        (norm1): GroupNorm(32, 128, eps=1e-05, affine=True)\n\
    \        (act1): Swish()\n        (conv1): Conv2d(128, 256, kernel_size=(3, 3),\
    \ stride=(1, 1), padding=(1, 1))\n        (norm2): GroupNorm(32, 256, eps=1e-05,\
    \ affine=True)\n        (act2): Swish()\n        (conv2): Conv2d(256, 256, kernel_size=(3,\
    \ 3), stride=(1, 1), padding=(1, 1))\n        (shortcut): Conv2d(128, 256, kernel_size=(1,\
    \ 1), stride=(1, 1))\n        (time_emb): Linear(in_features=256, out_features=256,\
    \ bias=True)\n      )\n      (attn): Identity()\n    )\n    (7): DownBlock(\n\
    \      (res): ResidualBlock(\n        (norm1): GroupNorm(32, 256, eps=1e-05, affine=True)\n\
    \        (act1): Swish()\n        (conv1): Conv2d(256, 256, kernel_size=(3, 3),\
    \ stride=(1, 1), padding=(1, 1))\n        (norm2): GroupNorm(32, 256, eps=1e-05,\
    \ affine=True)\n        (act2): Swish()\n        (conv2): Conv2d(256, 256, kernel_size=(3,\
    \ 3), stride=(1, 1), padding=(1, 1))\n        (shortcut): Identity()\n       \
    \ (time_emb): Linear(in_features=256, out_features=256, bias=True)\n      )\n\
    \      (attn): Identity()\n    )\n    (8): Downsample(\n      (conv): Conv2d(256,\
    \ 256, kernel_size=(3, 3), stride=(2, 2), padding=(1, 1))\n    )\n    (9): DownBlock(\n\
    \      (res): ResidualBlock(\n        (norm1): GroupNorm(32, 256, eps=1e-05, affine=True)\n\
    \        (act1): Swish()\n        (conv1): Conv2d(256, 1024, kernel_size=(3, 3),\
    \ stride=(1, 1), padding=(1, 1))\n        (norm2): GroupNorm(32, 1024, eps=1e-05,\
    \ affine=True)\n        (act2): Swish()\n        (conv2): Conv2d(1024, 1024, kernel_size=(3,\
    \ 3), stride=(1, 1), padding=(1, 1))\n        (shortcut): Conv2d(256, 1024, kernel_size=(1,\
    \ 1), stride=(1, 1))\n        (time_emb): Linear(in_features=256, out_features=1024,\
    \ bias=True)\n      )\n      (attn): AttentionBlock(\n        (norm): GroupNorm(32,\
    \ 1024, eps=1e-05, affine=True)\n        (projection): Linear(in_features=1024,\
    \ out_features=3072, bias=True)\n        (output): Linear(in_features=1024, out_features=1024,\
    \ bias=True)\n      )\n    )\n    (10): DownBlock(\n      (res): ResidualBlock(\n\
    \        (norm1): GroupNorm(32, 1024, eps=1e-05, affine=True)\n        (act1):\
    \ Swish()\n        (conv1): Conv2d(1024, 1024, kernel_size=(3, 3), stride=(1,\
    \ 1), padding=(1, 1))\n        (norm2): GroupNorm(32, 1024, eps=1e-05, affine=True)\n\
    \        (act2): Swish()\n        (conv2): Conv2d(1024, 1024, kerne [[...]]"
  is_explicitly_specified: false
  is_hyperparam: null
  is_meta: null
  name: eps_model
  options: []
  order: 5
  type: <class 'labml_nn.diffusion.ddpm.unet.UNet'>
  value: "UNet(\n  (image_proj): Conv2d(3, 64, kernel_size=(3, 3), stride=(1, 1),\
    \ padding=(1, 1))\n  (time_emb): TimeEmbedding(\n    (lin1): Linear(in_features=64,\
    \ out_features=256, bias=True)\n    (act): Swish()\n    (lin2): Linear(in_features=256,\
    \ out_features=256, bias=True)\n  )\n  (down): ModuleList(\n    (0): DownBlock(\n\
    \      (res): ResidualBlock(\n        (norm1): GroupNorm(32, 64, eps=1e-05, affine=True)\n\
    \        (act1): Swish()\n        (conv1): Conv2d(64, 64, kernel_size=(3, 3),\
    \ stride=(1, 1), padding=(1, 1))\n        (norm2): GroupNorm(32, 64, eps=1e-05,\
    \ affine=True)\n        (act2): Swish()\n        (conv2): Conv2d(64, 64, kernel_size=(3,\
    \ 3), stride=(1, 1), padding=(1, 1))\n        (shortcut): Identity()\n       \
    \ (time_emb): Linear(in_features=256, out_features=64, bias=True)\n      )\n \
    \     (attn): Identity()\n    )\n    (1): DownBlock(\n      (res): ResidualBlock(\n\
    \        (norm1): GroupNorm(32, 64, eps=1e-05, affine=True)\n        (act1): Swish()\n\
    \        (conv1): Conv2d(64, 64, kernel_size=(3, 3), stride=(1, 1), padding=(1,\
    \ 1))\n        (norm2): GroupNorm(32, 64, eps=1e-05, affine=True)\n        (act2):\
    \ Swish()\n        (conv2): Conv2d(64, 64, kernel_size=(3, 3), stride=(1, 1),\
    \ padding=(1, 1))\n        (shortcut): Identity()\n        (time_emb): Linear(in_features=256,\
    \ out_features=64, bias=True)\n      )\n      (attn): Identity()\n    )\n    (2):\
    \ Downsample(\n      (conv): Conv2d(64, 64, kernel_size=(3, 3), stride=(2, 2),\
    \ padding=(1, 1))\n    )\n    (3): DownBlock(\n      (res): ResidualBlock(\n \
    \       (norm1): GroupNorm(32, 64, eps=1e-05, affine=True)\n        (act1): Swish()\n\
    \        (conv1): Conv2d(64, 128, kernel_size=(3, 3), stride=(1, 1), padding=(1,\
    \ 1))\n        (norm2): GroupNorm(32, 128, eps=1e-05, affine=True)\n        (act2):\
    \ Swish()\n        (conv2): Conv2d(128, 128, kernel_size=(3, 3), stride=(1, 1),\
    \ padding=(1, 1))\n        (shortcut): Conv2d(64, 128, kernel_size=(1, 1), stride=(1,\
    \ 1))\n        (time_emb): Linear(in_features=256, out_features=128, bias=True)\n\
    \      )\n      (attn): Identity()\n    )\n    (4): DownBlock(\n      (res): ResidualBlock(\n\
    \        (norm1): GroupNorm(32, 128, eps=1e-05, affine=True)\n        (act1):\
    \ Swish()\n        (conv1): Conv2d(128, 128, kernel_size=(3, 3), stride=(1, 1),\
    \ padding=(1, 1))\n        (norm2): GroupNorm(32, 128, eps=1e-05, affine=True)\n\
    \        (act2): Swish()\n        (conv2): Conv2d(128, 128, kernel_size=(3, 3),\
    \ stride=(1, 1), padding=(1, 1))\n        (shortcut): Identity()\n        (time_emb):\
    \ Linear(in_features=256, out_features=128, bias=True)\n      )\n      (attn):\
    \ Identity()\n    )\n    (5): Downsample(\n      (conv): Conv2d(128, 128, kernel_size=(3,\
    \ 3), stride=(2, 2), padding=(1, 1))\n    )\n    (6): DownBlock(\n      (res):\
    \ ResidualBlock(\n        (norm1): GroupNorm(32, 128, eps=1e-05, affine=True)\n\
    \        (act1): Swish()\n        (conv1): Conv2d(128, 256, kernel_size=(3, 3),\
    \ stride=(1, 1), padding=(1, 1))\n        (norm2): GroupNorm(32, 256, eps=1e-05,\
    \ affine=True)\n        (act2): Swish()\n        (conv2): Conv2d(256, 256, kernel_size=(3,\
    \ 3), stride=(1, 1), padding=(1, 1))\n        (shortcut): Conv2d(128, 256, kernel_size=(1,\
    \ 1), stride=(1, 1))\n        (time_emb): Linear(in_features=256, out_features=256,\
    \ bias=True)\n      )\n      (attn): Identity()\n    )\n    (7): DownBlock(\n\
    \      (res): ResidualBlock(\n        (norm1): GroupNorm(32, 256, eps=1e-05, affine=True)\n\
    \        (act1): Swish()\n        (conv1): Conv2d(256, 256, kernel_size=(3, 3),\
    \ stride=(1, 1), padding=(1, 1))\n        (norm2): GroupNorm(32, 256, eps=1e-05,\
    \ affine=True)\n        (act2): Swish()\n        (conv2): Conv2d(256, 256, kernel_size=(3,\
    \ 3), stride=(1, 1), padding=(1, 1))\n        (shortcut): Identity()\n       \
    \ (time_emb): Linear(in_features=256, out_features=256, bias=True)\n      )\n\
    \      (attn): Identity()\n    )\n    (8): Downsample(\n      (conv): Conv2d(256,\
    \ 256, kernel_size=(3, 3), stride=(2, 2), padding=(1, 1))\n    )\n    (9): DownBlock(\n\
    \      (res): ResidualBlock(\n        (norm1): GroupNorm(32, 256, eps=1e-05, affine=True)\n\
    \        (act1): Swish()\n        (conv1): Conv2d(256, 1024, kernel_size=(3, 3),\
    \ stride=(1, 1), padding=(1, 1))\n        (norm2): GroupNorm(32, 1024, eps=1e-05,\
    \ affine=True)\n        (act2): Swish()\n        (conv2): Conv2d(1024, 1024, kernel_size=(3,\
    \ 3), stride=(1, 1), padding=(1, 1))\n        (shortcut): Conv2d(256, 1024, kernel_size=(1,\
    \ 1), stride=(1, 1))\n        (time_emb): Linear(in_features=256, out_features=1024,\
    \ bias=True)\n      )\n      (attn): AttentionBlock(\n        (norm): GroupNorm(32,\
    \ 1024, eps=1e-05, affine=True)\n        (projection): Linear(in_features=1024,\
    \ out_features=3072, bias=True)\n        (output): Linear(in_features=1024, out_features=1024,\
    \ bias=True)\n      )\n    )\n    (10): DownBlock(\n      (res): ResidualBlock(\n\
    \        (norm1): GroupNorm(32, 1024, eps=1e-05, affine=True)\n        (act1):\
    \ Swish()\n        (conv1): Conv2d(1024, 1024, kernel_size=(3, 3), stride=(1,\
    \ 1), padding=(1, 1))\n        (norm2): GroupNorm(32, 1024, eps=1e-05, affine=True)\n\
    \        (act2): Swish()\n        (conv2): Conv2d(1024, 1024, kerne [[...]]"
image_channels:
  computed: 3
  is_explicitly_specified: true
  is_hyperparam: null
  is_meta: null
  name: image_channels
  options: []
  order: 0
  type: <class 'int'>
  value: 3
image_size:
  computed: 32
  is_explicitly_specified: false
  is_hyperparam: null
  is_meta: null
  name: image_size
  options: []
  order: 8
  type: <class 'int'>
  value: null
is_attention:
  computed:
…
